data.pth (torch, 21143 bytes, 6 tensors)

l1.weight f4 [8, 321]
0.015310976 0.23407729 -0.4888139 0.32662386 0.15316156 -0.70617193 2.0125055 -0.08345499
0.7607007 0.100958295 -0.039941892 0.60987604 -0.4677243 -0.0022923779 0.27152932 0.5245457
-0.08239558 0.10714006 1.3546624 -0.3750433 -0.23951831 -0.501103 0.23571911 0.18873124
-0.020550435 0.32794914 0.36564603 0.821213 -0.20633872 2.2038455 1.0779392 0.2706903
-0.27241942 -0.05357369 1.3689206 1.5466458 -0.09533321 -0.33247244 -0.15161188 -0.22887129
1.7359194 0.012460013 -0.8270529 -0.41136774 0.17700437 0.4300546 0.38880005 0.2640479
0.4214598 -0.19461972 0.06446822 -0.12870638 0.024079243 0.32742345 -0.056604378 0.3075216
0.17806977 -0.18101662 -0.40932515 -0.79434705 -0.29015145 0.5271297 -0.53267586 0.746058
-0.111915186 -0.19546464 2.2692301 -0.24219196 0.38041043 -0.11324758 1.715054 0.8979798
-0.12444152 -0.35101938 0.48824564 -0.5276606 0.717644 2.0347812 0.17360507 -0.09388909
-0.026267141 -0.22486654 -0.01302082 0.13610955 0.48067236 -0.37593773 0.6054602 0.37665334
-0.12956537 -0.028074183 1.5275799 1.3373425 0.40153667 0.4227996 -0.38018858 1.4287764
2.526974 -0.21113391 0.16937493 0.33165714 -0.25851876 -0.015361125 1.4207797 1.0760057
0.61683226 0.044263653 0.3618248 -0.541163 0.91559285 0.15129225 -0.23389158 2.1861331
0.9350414 0.80025643 -0.005309253 1.3838286 -0.091479115 -0.06737437 0.29330355 0.30055773
1.2644265 -1.2959572 1.8047466 -0.08483139 -0.32218707 -0.8267594 -0.6276466 1.1177297
-0.5267787 0.76275223 -0.52888364 -0.6125485 0.9303068 -0.11451156 -0.007820808 0.5582766
0.22256747 -0.18102124 0.26482445 0.6482156 -2.0433643 1.3676794 -0.025867682 -0.21754119
0.79941785 -0.4250157 -0.28210557 0.07412471 0.5914334 0.34312743 0.42841703 1.3736238
0.10753418 0.005940646 -0.4239576 -0.2954387 0.06568186 0.9422627 0.90173316 1.2320387
-0.19995216 0.23758484 -0.34035856 -0.17247716 -0.2457046 -0.12286577 0.30377012 2.7912204
-0.13200907 1.257159 -0.022688026 2.2023518 0.629048 0.2888414 0.5414654 -0.2925229
-0.043258753 -0.45355746 -0.10411228 -0.06512479 0.41466564 -0.24195209 0.08556853 1.6553453
0.66911066 0.2358863 -0.4330553 -0.31657752 0.10255701 -0.5103673 -0.21154052 0.13750756
-0.48853073 1.8188139 3.0582695 -0.15316704 -0.17448454 -0.13346799 -0.31658798 -0.1337848
0.31214315 1.1387166 -0.3132677 0.5385873 0.31798556 1.5805634 -0.06211969 -0.68137103
0.20114511 0.87965024 2.2630954 -0.28273225 -0.21941908 2.5552914 -0.24749906 -0.23999427
0.9162762 -0.27517894 -0.31517613 -0.5760366 1.6775934 -0.31500116 0.07719737 1.2944666
1.1903614 -0.35306635 -0.18640964 0.62129086 -0.47363025 -0.058214955 2.269125 -0.5617197
0.30406833 0.04104185 0.6365204 0.18796691 -0.41422158 -0.22503418 -0.53492016 -0.30356145
-0.39593574 0.004304927 0.70763505 0.24508366 0.38179338 1.0338598 -0.10066133 -0.3612756
1.7282648 1.3905027 -0.21904376 -0.019111905 1.4149561 0.43512934 0.2909264 2.0553071
00000000: e3da 7a3c f5b1 6f3e d145 fabe 3e3b a73e
00000010: 62d6 1c3e afc7 34bf e4cc 0040 73ea aabd
00000020: 48bd 423f 39c3 ce3d 1c9a 23bd d620 1c3f
00000030: 8f79 efbe b83b 16bb e405 8b3e a148 063f
00000040: 04bf a8bd 3f6c db3d 9465 ad3f ad05 c0be
00000050: 4a44 75be 4948 00bf 5a60 713e c342 413e
00000060: 6359 a8bc f3e8 a73e f535 bb3e 043b 523f
00000070: 754a 53be ce0b 0d40 e9f9 893f eb97 8a3e
00000080: 8f7a 8bbe 1670 5bbd ca38 af3f 7df8 c53f
00000090: 0f3e c3bd d439 aabe 2540 1bbe 3c5d 6abe
000000a0: 9b32 de3f 1525 4c3c bdb9 53bf cb9e d2be
000000b0: a240 353e 1e30 dc3e cd10 c73e 4931 873e
000000c0: 94c9 d73e 644a 47be ea07 843d 9bcb 03be
000000d0: d541 c53c 0ca4 a73e fed9 67bd 7973 9d3e
000000e0: ec57 363e 6c5c 39be 1193 d1be 545a 4bbf
000000f0: bb8e 94be f9f1 063f 725d 08bf a8fd 3e3f
00000100: ca33 e5bd e227 48be 113b 1140 2b01 78be
00000110: 28c5 c23e 59ee e7bd e486 db3f 01e2 653f
00000120: 32db febd d0b8 b3be 55fb f93e c414 07bf
00000130: 84b7 373f db39 0240 87c5 313e ec48 c0bd
00000140: 302e d7bc 6a43 66be 4755 55bc 4d60 0b3e
00000150: b01a f63e e97a c0be 71ff 1a3f b5d8 c03e
00000160: c9ac 04be d4fb e5bc bd87 c33f 0a2e ab3f
00000170: 3796 cd3e 3079 d83e 14a8 c2be 25e2 b63f
00000180: f1b9 2140 7d33 58be 9f70 2d3e f7ce a93e
00000190: 925c 84be 3aad 7bbc 1cdc b53f 8eba 893f
000001a0: b8e8 1d3f ce4d 353d 1a41 b93e a989 0abf
000001b0: 4b64 6a3f 5bec 1a3e 4681 6fbe 9be9 0b40
000001c0: e05e 6f3f 9bdd 4c3f 3ef9 adbb 4c21 b13f
000001d0: 6759 bbbd 93fb 89bd e22b 963e b4e2 993e
000001e0: bad8 a13f ede1 a5bf f001 e73f 14bc adbd
000001f0: b4f5 a4be 81a6 53bf 73ad 20bf c411 8f3f
00000200: f8da 06bf bb43 433f eb64 07bf facf 1cbf
00000210: 9628 6e3f 0985 eabd d922 00bc 37eb 0e3f
00000220: bae8 633e a25d 39be 1297 873e 75f1 253f
00000230: 7bc6 02c0 1e10 af3f 76e8 d3bc 1ec3 5ebe
00000240: a6a6 4c3f a89b d9be 2470 90be b2ce 973d
00000250: 2e68 173f 66ae af3e 7a59 db3e e8d2 af3f
00000260: e13a dc3d c0a9 c23b f810 d9be be43 97be
00000270: 3684 863d 2138 713f fcd7 663f 72b3 9d3f
00000280: 42c0 4cbe 7149 733e 7a43 aebe da9d 30be
00000290: fd99 7bbe 0ca1 fbbd c287 9b3e 5ba3 3240
000002a0: 632d 07be 96ea a03f 3ddc b9bc 55f3 0c40
000002b0: 4a09 213f 05e3 933e 7a9d 0a3f 90c5 95be
000002c0: 1730 31bd af38 e8be d238 d5bd 2560 85bd
000002d0: 0e4f d43e 4ac2 77be 8e3e af3d 5be2 d33f
000002e0: d64a 2b3f 2e8c 713e 6db9 ddbe 7316 a2be
000002f0: 6909 d23d 6ea7 02bf 149e 58be c8ce 0c3e
00000300: b320 fabe e5ce e83f b0ba 4340 d2d7 1cbe
00000310: 13ac 32be d5ab 08be d217 a2be e2fe 08be
00000320: 3ad1 9f3e 77c1 913f a064 a0be dbe0 093f
00000330: 01cf a23e e74f ca3f 3771 7ebd 556e 2ebf
00000340: fcf8 4d3e c230 613f 8ed6 1040 48c2 90be
00000350: 65af 60be e589 2340 6570 7dbe 0fc1 75be
00000360: 1491 6a3f 41e4 8cbe c45e a1be 2277 13bf
00000370: 61bb d63f d547 a1be a819 9e3d 15b1 a53f
00000380: c35d 983f 1dc5 b4be 2be2 3ebe eb0c 1f3f
00000390: aa7f f2be ce72 6ebd 5839 1140 ddcc 0fbf
000003a0: d8ae 9b3e 801b 283d 00f3 223f 667a 403e
000003b0: da14 d4be 5c6f 66be 87f0 08bf 686c 9bbe
000003c0: 17b8 cabe 5810 8d3b 9227 353f 36f7 7a3e
000003d0: 6c7a c33e 8555 843f 8727 cebd 1ef9 b8be
000003e0: c837 dd3f fefb b13f 024d 60be 9290 9cbc
000003f0: 481d b53f 46c9 de3e 4ef4 943e 278a 0340

l1.bias f4 [8]
0.7927321 0.8333768 0.95300084 1.6272678 0.7341472 0.9354168 0.80898714 0.8499572
00000000: 7ef0 4a3f 2f58 553f ddf7 733f 504a d03f
00000010: 12f1 3b3f 7a77 6f3f c819 4f3f cc96 593f

l2.weight f4 [8, 8]
0.62747693 -0.24752529 -1.0311688 1.5572492 1.456673 0.3013314 0.8982407 -1.5557736
1.0628725 -1.0620964 2.2828298 -0.6169803 -0.21272151 0.0697135 2.1465116 -0.038399473
1.0672348 -1.3376763 -0.28860798 2.092352 -0.57875085 0.36029696 0.39735383 -0.72409624
1.6954755 -0.13177818 -0.6824571 -0.80809605 1.1858293 2.127151 0.4421267 0.03208323
-0.31339097 -0.07436454 -0.17297906 -0.25929844 -0.0195238 0.03045392 0.15902278 -0.11662859
-0.64162755 1.5982397 0.6956302 1.3165326 2.2733874 1.2914007 -0.8227697 2.1766021
0.13706912 -0.5425237 0.7590892 0.92629087 -0.71844953 2.3158786 -0.93027604 0.7126964
1.2040918 2.3772354 -1.4195853 1.1920578 -0.5835916 -0.539704 1.1181943 1.2816036
00000000: 54a2 203f 4577 7dbe 57fd 83bf f153 c73f
00000010: 4374 ba3f 1c48 9a3e 1af3 653f 9723 c7bf
00000020: 350c 883f c6f2 87bf e219 1240 6cf2 1dbf
00000030: abd3 59be f4c5 8e3d 7260 0940 c448 1dbd
00000040: 269b 883f fa38 abbf 6dc4 93be 18e9 0540
00000050: 0429 14bf d878 b83e f671 cb3e 5f5e 39bf
00000060: 5705 d93f dcf0 06be 82b5 2ebf 62df 4ebf
00000070: 41c9 973f 3e23 0840 6e5e e23e b469 033d
00000080: c874 a0be 704c 98bd 6c21 31be c4c2 84be
00000090: 60f0 9fbc 807a f93c ded6 223e f8da eebd
000000a0: b441 24bf 1e93 cc3f d214 323f 2484 a83f
000000b0: 2e7f 1140 9e4c a53f 09a1 52bf 734d 0b40
000000c0: d95b 0c3e d5e2 0abf ab53 423f 6621 6d3f
000000d0: 4fec 37bf 5b37 1440 9226 6ebf 4573 363f
000000e0: ae1f 9a3f a024 1840 f9b4 b5bf 5a95 983f
000000f0: 4266 15bf 0b2a 0abf fe20 8f3f 960b a43f

l2.bias f4 [8]
0.38524163 0.36593583 0.88986975 -0.4915783 -0.33613446 0.23077579 0.9709014 0.30320674
00000000: 643e c53e f15b bb3e 81ce 633f 27b0 fbbe
00000010: d119 acbe 7d50 6c3e ff8c 783f ea3d 9b3e

l3.weight f4 [71, 8]
-0.54582757 0.04813254 -4.045209 0.42707735 0.2945625 -0.10890543 -2.6633394 -0.2933351
-0.86542994 -1.931733 -0.53753984 0.24649182 0.15541288 0.60856223 -0.31480804 -3.7235775
-4.5590887 0.36151296 -0.2713275 0.8596442 -0.17605928 -1.1642863 -0.2926047 -1.2787156
-1.1442065 -2.5866942 -0.0973504 -1.8622296 -0.12043311 0.35562158 0.2168788 -0.33969158
-0.66595453 -1.7985394 -3.9268906 0.23715709 -0.27225304 0.31013888 -1.4889948 0.31884176
-0.3983095 0.7333388 -0.4788039 0.18549839 0.3141338 -3.3182354 -3.735238 -0.8076572
-0.14003748 -0.16771297 -1.1803564 -0.7662379 0.17440268 0.52742636 -1.2496822 -3.264385
-2.6753378 -0.9345577 0.32712236 -0.4831619 0.07623476 -0.09239407 -0.13245164 -0.0143406885
-3.761159 -0.5278248 -3.6563082 -0.21886401 -0.10176617 0.7116721 0.21775156 -3.933953
0.53621906 -1.503947 0.45017606 -0.26365206 -0.19565384 -0.42360643 -4.6665745 0.47280768
-0.0075022327 -0.99522066 0.48440462 0.20096038 0.24914399 -1.8798655 -0.72882944 0.36355332
-1.3107741 -2.1137557 -0.7793823 0.50330216 -0.3497655 0.24028264 -0.43149796 -0.31423464
-0.54931635 -0.64380056 -0.1861508 0.9135008 0.15216902 -2.653038 -1.7207855 0.63124025
-0.84377694 0.07218876 -2.742563 -3.195592 -0.07633883 -0.11024309 -4.478155 0.6499401
-1.4031962 -0.12638803 -0.11101781 -3.6952143 0.034204036 0.5792908 -0.733949 -0.40742007
-1.514727 0.010651721 -0.050866403 0.24292627 0.18463394 -0.22317559 -0.9737864 -0.054186106
0.34613284 -0.9748356 -0.61934215 0.78512853 0.07330808 -0.7131378 -3.4761086 0.17653663
-3.3533144 0.15856794 -3.8688948 -3.8755965 0.3440055 0.54571027 -2.7485554 -0.017779324
-1.7716404 -0.22768626 0.26354238 0.4134261 0.041469216 0.12886368 -0.561122 -1.6899694
-1.8432292 -2.6842182 -3.4141426 -1.3713297 0.10022634 0.5322953 -1.7617757 1.2813643
-5.987557 0.3387497 0.6366079 -2.4004521 0.195492 -0.76084536 -0.47783113 0.58405185
-1.4122832 0.46937537 0.5408044 -0.2669759 0.20147005 -2.167797 -1.2344517 0.32720175
-0.8519696 -2.1903095 -3.886733 -2.4867685 -0.35154402 0.8752768 -0.052142322 -0.2313884
-0.98406786 0.61809593 -1.2592257 0.017275585 -0.16332503 -0.5436344 -3.408306 -2.3173175
-5.6022415 -0.61275715 -0.8397195 0.24872321 0.32868984 -0.063086055 0.33793163 -0.38457853
-5.4303308 -3.0998714 -1.0782319 0.34813777 -0.052095234 0.5746353 0.4032053 -0.40213296
0.88273495 -1.0047638 1.0046849 -1.4813387 -0.17887568 -0.9985017 -0.21973085 -0.59762216
-1.9166055 -4.5598636 0.29481834 0.2283734 -0.27158815 -0.24754547 -0.23770696 0.65771455
-0.26113617 -0.16367452 -0.59646475 0.61306125 0.002517134 -1.1037339 -0.5233237 -0.33593547
-1.100435 0.18288237 0.42943043 -2.6426668 0.13439646 -0.034795925 -0.6353031 -0.71453834
-1.450165 -0.02729036 -0.22424677 0.20149988 -0.2457608 -0.33959332 -0.75685054 0.08655481
-5.416469 -0.34598228 -0.40029106 0.5076013 0.32711533 -0.15501443 0.38746962 -3.5571635
00000000: 5bbb 0bbf a026 453d 5a72 81c0 e2a9 da3e
00000010: e5d0 963e cf09 dfbd 2774 2ac0 0530 96be
00000020: d18c 5dbf 0743 f7bf 369c 09bf 5a68 7c3e
00000030: 8e24 1f3e bcca 1b3f 852e a1be 184f 6ec0
00000040: 0ee4 91c0 3a18 b93e 70eb 8abe a411 5c3f
00000050: e248 34be 5507 95bf 49d0 95be f4ac a3bf
00000060: 5c75 92bf 668c 25c0 a65f c7bd 8a5d eebf
00000070: a2a5 f6bd 0814 b63e 7a15 5e3e 0eec adbe
00000080: ff7b 2abf 8a36 e6bf 2d52 7bc0 4fd9 723e
00000090: c064 8bbe 86ca 9e3e 6297 bebf 3a3f a33e
000000a0: 39ef cbbe 17bc 3b3f c925 f5be 4af3 3d3e
000000b0: 25d6 a03e f85d 54c0 240e 6fc0 9fc2 4ebf
000000c0: fc65 0fbe f3bc 2bbe eb15 97bf 2b28 44bf
000000d0: 9e96 323e 6a05 073f 96f5 9fbf afeb 50c0
000000e0: bc38 2bc0 2c3f 6fbf 957c a73e ff60 f7be
000000f0: f820 9c3d 1a39 bdbd 67a1 07be 35f5 6abc
00000100: d4b6 70c0 871f 07bf f400 6ac0 e31d 60be
00000110: c86a d0bd 2530 363f 44fa 5e3e e3c5 7bc0
00000120: a745 093f 5681 c0bf 7a7d e63e 67fd 86be
00000130: 7b59 48be f1e2 d8be 9454 95c0 d913 f23e
00000140: 4ad5 f5bb c8c6 7ebf e203 f83e 8fc8 4d3e
00000150: 9a1f 7f3e 6f9f f0bf 9194 3abf a923 ba3e
00000160: 72c7 a7bf c647 07c0 9985 47bf 69d8 003f
00000170: 7714 b3be a70c 763e 4ded dcbe 5de3 a0be
00000180: ff9f 0cbf 1dd0 24bf 519e 3ebe 30db 693f
00000190: 32d2 1b3e 60cb 29c0 b342 dcbf f698 213f
000001a0: c401 58bf b3d7 933d 2786 2fc0 9484 4cc0
000001b0: 8857 9cbd 21c7 e1bd 0c4d 8fc0 7962 263f
000001c0: ef9b b3bf dd6b 01be 4e5d e3bd 647e 6cc0
000001d0: 8819 0c3d 674c 143f 15e4 3bbf 5d99 d0be
000001e0: 93e2 c1bf 8e84 2e3c 4a59 50bd aac1 783e
000001f0: ae10 3d3e 2488 64be 114a 79bf 40f2 5dbd
00000200: 5338 b13e d38e 79bf 358d 1ebf 2ffe 483f
00000210: 8c22 963d 3390 36bf 9078 5ec0 05c6 343e
00000220: b49c 56c0 a25f 223e f99b 77c0 c609 78c0
00000230: 7d21 b03e abb3 0b3f 55e8 2fc0 f2a5 91bc
00000240: 1dc5 e2bf 9626 69be 07ef 863e 96ac d33e
00000250: a0db 293d d7f4 033e b1a5 0fbf eb50 d8bf
00000260: efee ebbf 3bca 2bc0 5081 5ac0 bb87 afbf
00000270: 7843 cd3d 8144 083f de81 e1bf bf03 a43f
00000280: 119a bfc0 9a70 ad3e bcf8 223f 02a1 19c0
00000290: 0e2f 483e c3c6 42bf 48a6 f4be 6c84 153f
000002a0: b2c5 b4bf f851 f03e 2872 0a3f 11b1 88be
000002b0: 2a4e 4e3e 30bd 0ac0 8302 9ebf fd86 a73e
000002c0: ae1a 5abf 082e 0cc0 3cc0 78c0 3727 1fc0
000002d0: 94fd b3be 2412 603f 3093 55bd 15f1 6cbe
000002e0: dfeb 7bbf 893b 1e3f 4f2e a1bf 8785 8d3c
000002f0: ad3e 27be a02b 0bbf af21 5ac0 ee4e 14c0
00000300: 9045 b3c0 a7dd 1cbf dbf7 56bf 4cb1 7e3e
00000310: 094a a83e 4333 81bd 6005 ad3e 7ae7 c4be
00000320: 45c5 adc0 4b64 46c0 8103 8abf 1d3f b23e
00000330: d061 55bd 4d1b 133f ed70 ce3e 5fe4 cdbe
00000340: ebfa 613f 1a9c 80bf 8499 803f 829c bdbf
00000350: 302b 37be cf9d 7fbf 2001 61be c4fd 18bf
00000360: 5453 f5bf 67ea 91c0 6ef2 963e b7da 693e
00000370: 9a0d 8bbe 8f7c 7dbe 7469 73be fb5f 283f
00000380: a4b3 85be 4b9a 27be eab1 18bf 95f1 1c3f
00000390: 80f6 243b 2747 8dbf 8bf8 05bf bcff abbe
000003a0: 0edb 8cbf 8445 3b3e 4ede db3e 7421 29c0
000003b0: 3a9f 093e 2c86 0ebd 39a3 22bf fceb 36bf
000003c0: 029f b9bf 0890 dfbc f2a0 65be fc55 4e3e
000003d0: b8a8 7bbe 2ddf adbe f5c0 41bf a643 b13d
000003e0: b753 adc0 9724 b1be f3f2 ccbe 29f2 013f
000003f0: a97b a73e 1abc 1ebe 6b62 c63e 91a8 63c0

l3.bias f4 [71]
0.033397473 -0.24561802 0.384076 -0.4494942 -0.12702483 -0.097921215 0.40791672 -0.48174748
0.46146804 -1.2214347 -0.40874785 -1.1356627 -0.2346672 0.14870991 0.12956733 -0.6157583
-0.6905287 0.5198563 -0.98154247 0.5515233 0.6287234 0.28594688 0.38655627 0.2358845
0.5774623 0.6706011 0.030902483 0.41707718 -0.5770898 -0.19442615 -0.40946355 -0.04675963
0.41239437 0.54628044 0.086260736 -0.06709748 0.23293228 -0.16506602 -0.19685905 -0.17888339
-0.5586172 -0.6956679 -0.5904484 -0.061774027 0.23632738 0.65713745 0.56390804 0.5080078
-0.30061552 -0.17259307 -0.058006473 -0.7866876 0.78371274 -0.023670824 -0.6594295 -0.59032047
0.36005685 -0.21274239 -0.51709086 -0.6381302 0.71672666 -0.03967142 0.34763172 -0.26615617
-1.1652825 -0.21166642 1.6935583 -0.7884981 -0.19631453 0.4944482 -0.42915553
00000000: cacb 083d 4a83 7bbe 9ca5 c43e 1b24 e6be
00000010: cc12 02be eb8a c8bd 76da d03e 9ba7 f6be
00000020: 8a45 ec3e f957 9cbf 6647 d1be 655d 91bf
00000030: 994c 70be 6947 183e 4cad 043e 56a2 1dbf
00000040: 7dc6 30bf 4d15 053f 5e46 7bbf a230 0d3f
00000050: 04f4 203f a167 923e b4ea c53e b58b 713e
00000060: 92d4 133f 84ac 2b3f 3427 fd3c 248b d53e
00000070: 28bc 13bf a617 47be 35a5 d1be 0787 3fbd
00000080: 5b25 d33e 09d9 0b3f 78a9 b03d 676a 89bd
00000090: cd85 6e3e 1107 29be 6b95 49be 352d 37be
000000a0: 8901 0fbf 4b17 32bf a027 17bf c306 7dbd
000000b0: ceff 713e 293a 283f 475c 103f cd0c 023f
000000c0: 47ea 99be 3dbc 30be 3298 6dbd 5c64 49bf
000000d0: 66a1 483f 51e9 c1bc 5fd0 28bf 3e1f 17bf
000000e0: 5f59 b83e 24d9 59be 1160 04bf 805c 23bf
000000f0: 667b 373f 807e 22bd c9fc b13e 9f45 88be
00000100: fa27 95bf 15bf 58be 85c6 d83f 03db 49bf
00000110: ad06 49be 5128 fd3e 46ba dbbe
